pytorch_models/TD3_HalfCheetahBulletEnv-v0_0_actor.pth (torch_old, 532711 bytes, 6 tensors)

layer_1.weight f4 [400, 26]
0.077460684 0.10520525 -0.48854184 -2.3141084 -0.075534984 0.8155179 -0.0038856864 1.1900333
-0.037703715 0.38656893 -0.19790201 0.046695597 0.018857671 0.17120697 -1.0837393 -0.6158977
0.98572415 0.12599285 -0.072564654 0.033875335 0.42059776 -1.1052424 0.15074499 0.10127889
-0.45618206 0.1528132 0.32415897 -0.18193112 -0.47171175 0.15659958 -0.07644606 -0.95293146
-0.1271185 0.7869615 0.3239257 0.43698442 -0.96294945 0.014889066 -0.31656057 -0.1858302
-0.7300721 -0.33594266 0.769227 -0.05011837 -0.4018253 -0.2291112 0.7384099 0.110304125
-0.908914 -0.09922654 -3.3408153 0.48749283 0.43720645 0.026493892 -0.18376198 -0.4852997
0.036545068 -1.4487802 -0.13592538 0.13986637 -1.3302327 0.6015801 -0.5357875 0.52081376
-0.27138376 0.63237023 -0.37347496 1.2565657 -0.2476865 0.43911365 -0.6032685 -0.39955
-0.18925168 -0.13682769 -0.21791084 0.08534947 0.3747404 -0.7245131 1.0063535 -0.1226913
-0.908871 -0.6760626 0.14911883 0.2667936 0.03670746 -1.5978986 0.21755981 0.49253622
-0.090729676 -0.49507627 0.13536595 0.24114971 -0.91167355 -0.28562072 0.35353652 0.55468255
0.2829539 -0.4729027 -0.8758485 -0.5832112 0.17406368 -0.23018159 0.58096534 0.1174628
-0.06438309 -0.0035250187 -0.42873096 0.13959253 -0.01080592 -1.2135267 -0.08031549 0.31952092
-0.43123183 -0.030597795 -0.07863442 -1.4530281 0.448756 -0.026204415 -0.045840736 -0.49303088
-0.4530776 0.23042437 -1.1021776 0.18781081 -0.57069886 0.17486526 0.118355386 -0.058923997
-1.1061218 -0.561097 0.07107138 0.041921094 -0.054306284 0.82867193 0.1403899 0.94094604
0.005450502 -1.0579153 0.283652 -0.07613416 0.06357056 0.2741867 0.8185062 0.7137702
-0.7202446 0.23832361 0.31236622 0.46850145 0.3542356 0.044822413 -1.998214 -1.1135508
0.0015407791 0.42434514 -0.82295346 -0.9051587 0.38595667 -0.15346272 -0.6131883 -0.47238076
-0.037774965 0.11754672 -0.1759848 -0.6573955 0.518807 -0.1455819 -0.12849313 -0.1708175
-0.9301116 0.19470815 0.25989085 0.026236296 0.09878324 0.6173638 -0.09147558 0.42722812
-1.1894003 -0.95630896 1.0107722 -0.09439163 -1.2107288 0.3318369 -0.046998665 0.054744735
-0.047317088 -0.26335576 -0.04716097 -0.25909707 -0.16161567 -0.03615602 1.0446197 1.0725574
-0.049637187 0.07612745 -0.31363922 0.28677619 -0.77768475 -0.107279494 -0.94965196 -0.3648481
0.5588986 -0.02613066 -0.07527125 0.08525246 -0.5062864 0.41824028 0.019617287 0.57675725
0.23053454 0.024833411 -0.21897475 -1.6773565 0.024605975 -0.8531003 -0.0013779998 -0.4824064
0.926556 0.39829287 -0.16596988 0.20798397 0.5739756 0.17221136 -0.5467688 -0.75487274
-1.3220897 -0.42150927 -0.5046642 -0.5145887 -0.5924566 0.0469644 -0.38103595 0.023084104
0.44543076 -0.025744304 0.50771827 -0.123987354 0.24461098 -0.70303273 -0.08311895 -0.6977262
0.06475599 -0.024152912 -0.8746165 0.63440734 -0.38956493 -0.49330026 -0.45272088 -0.4708075
-0.36655876 0.35900286 -0.561598 -0.097399056 -0.17213035 -0.32960567 -0.7814166 0.68244547
00000000: b5a3 9e3d da75 d73d 2822 fabe 5a1a 14c0
00000010: 16b2 9abd c8c5 503f 00a7 7ebb 0353 983f
00000020: 366f 1abd 5dec c53e d3a6 4abe e243 3f3d
00000030: 677b 9a3c e150 2f3e f8b7 8abf 79ab 1dbf
00000040: 6b58 7c3f 4504 013e c79c 94bd ddc0 0a3d
00000050: 9758 d73e 9578 8dbf e55c 1a3e 4f6b cf3d
00000060: b290 e9be 107b 1c3e 2af8 a53e 274c 3abe
00000070: 3484 f1be a45b 203e c08f 9cbd 51f3 73bf
00000080: 5a2b 02be 4f76 493f 97d9 a53e 6cbc df3e
00000090: db83 76bf 45f1 733c 3a14 a2be 464a 3ebe
000000a0: 01e6 3abf ad00 acbe 10ec 443f ec48 4dbd
000000b0: 0cbc cdbe 209c 6abe 6e08 3d3f 21e7 e13d
000000c0: 97ae 68bf 4937 cbbd ebcf 55c0 a998 f93e
000000d0: 86d9 df3e b809 d93c 1a2c 3cbe 3479 f8be
000000e0: 48b0 153d a171 b9bf 0630 0bbe 2139 0f3e
000000f0: 1145 aabf 2701 1a3f 5f29 09bf 0d54 053f
00000100: d0f2 8abe 04e3 213f 1c38 bfbe 25d7 a03f
00000110: 88a1 7dbe 81d3 e03e ce6f 1abf d191 ccbe
00000120: 31cb 41be 8f1c 0cbe 0524 5fbe b4cb ae3d
00000130: f9dd bf3e b179 39bf 31d0 803f 9445 fbbd
00000140: c5ab 68bf 7012 2dbf 9bb2 183e 2c99 883e
00000150: 905a 163d f187 ccbf 00c8 5e3e b52d fc3e
00000160: 7bd0 b9bd a37a fdbe 5f9d 0a3e f3ef 763e
00000170: 7063 69bf e13c 92be bd02 b53e adff 0d3f
00000180: 55df 903e 4d20 f2be 9b37 60bf 544d 15bf
00000190: c03d 323e b9b4 6bbe 25ba 143f 5690 f03d
000001a0: 48db 83bd 0004 67bb a082 dbbe 58f1 0e3e
000001b0: 500b 31bc d854 9bbf 737c a4bd 3f98 a33e
000001c0: 6bca dcbe 3aa8 fabc 150b a1bd d3fc b9bf
000001d0: 59c3 e53e a4aa d6bc 7fc3 3bbd 8b6e fcbe
000001e0: caf9 e7be 5ef4 6b3e 2814 8dbf 7a51 403e
000001f0: 5219 12bf e10f 333e 4f64 f23d 4a5a 71bd
00000200: 6695 8dbf 0ea4 0fbf df8d 913d 74b5 2b3d
00000210: 4470 5ebd d823 543f 5fc2 0f3e d7e1 703f
00000220: 209a b23b c569 87bf d63a 913e 3aec 9bbd
00000230: 4831 823d 3362 8c3e 9f89 513f a5b9 363f
00000240: f361 38bf 1b0b 743e 77ee 9f3e 6cdf ef3e
00000250: 5e5e b53e b597 373d 7ac5 ffbf d588 8ebf
00000260: f8f3 c93a c443 d93e 14ad 52bf 7bb8 67bf
00000270: 1d9c c53e 5525 1dbe e9f9 1cbf e4db f1be
00000280: ecb9 1abd 56bc f03d 5c35 34be 124b 28bf
00000290: 89d0 043f 6c13 15be b493 03be c8ea 2ebe
000002a0: cb1b 6ebf 9361 473e 6a10 853e 80ed d63c
000002b0: de4e ca3d 8e0b 1e3f 8d57 bbbd a5bd da3e
000002c0: 453e 98bf aad0 74bf fc60 813f 6650 c1bd
000002d0: 29f9 9abf 87e6 a93e ac81 40bd 043c 603d
000002e0: 90cf 41bd 91d6 86be dc2b 41bd 5fa8 84be
000002f0: 947e 25be 5618 14bd 19b6 853f 9049 893f
00000300: 5d50 4bbd b5e8 9b3d 5295 a0be 54d4 923e
00000310: 5916 47bf 5ab5 dbbd 641c 73bf 5fcd babe
00000320: fb13 0f3f f70f d6bc d027 9abd d798 ae3d
00000330: fc9b 01bf 9723 d63e 6fb4 a03c 5da6 133f
00000340: 3f11 6c3e 706f cb3c eb3a 60be 9eb3 d6bf
00000350: 7892 c93c c864 5abf 009e b4ba f9fd f6be
00000360: c632 6d3f 0bed cb3e 02f4 29be c0f9 543e
00000370: 11f0 123f 2d58 303e 0af9 0bbf 573f 41bf
00000380: 3c3a a9bf 10d0 d7be ac31 01bf 16bc 03bf
00000390: 3cab 17bf be5d 403d 2517 c3be e01a bd3c
000003a0: 800f e43e b8e5 d2bc d3f9 013f 15ed fdbd
000003b0: 4d7b 7a3e f4f9 33bf 453a aabd 2f9e 32bf
000003c0: ca9e 843d 54dc c5bc dee6 5fbf 8568 223f
000003d0: 0e75 c7be da91 fcbe 08cb e7be ae0d f1be
000003e0: 97ad bbbe 39cf b73e e3c4 0fbf 2879 c7bd
000003f0: f042 30be 13c2 a8be eb0a 48bf bfb4 2e3f

layer_1.bias f4 [400]
-0.52131027 -0.4534952 -0.34638956 -0.56090224 -0.32055277 -0.083780065 -0.7467398 -0.13788013
-0.20287469 0.20435926 -0.49898475 -0.30792335 -0.47438452 -0.77733976 -0.4232369 -0.6300862
-0.7737684 -0.41783375 -0.21330243 -0.42927465 -0.2853537 -0.45522192 -0.39672998 -0.5044737
-0.028263064 -0.28218567 -0.5321991 -0.394204 -0.7045237 -0.66965085 -0.08521046 -0.90783906
-0.39277953 0.13438706 -0.1710244 -0.5412724 -0.094626695 -0.4901719 -0.43056285 0.21005718
-0.27110642 -0.44602478 -0.09480991 -0.59161246 -0.39399493 -0.2170555 0.1748896 0.13590705
-0.6979753 -0.20176071 -0.016143879 -0.2013261 -0.4901089 -0.43983284 -0.1051012 -0.6341811
0.010930287 -0.5085604 -0.2886039 -0.095342554 -0.57396567 0.33383748 -0.76265305 -0.12804316
0.0327469 -0.6934371 -0.17549442 0.13935411 -0.16344607 -0.086675316 -0.026594616 0.032787405
-0.26121855 -0.21157582 -0.1471521 -0.5134275 0.08909595 -0.016960658 -0.7394865 -0.4535936
-0.20480643 -0.35572797 -0.47317752 -0.0001220521 -0.45791948 0.10598475 0.4936392 -0.76465666
0.029498992 -0.6897167 -0.00091836136 -0.495749 -0.093167804 -0.54669255 -0.436439 -0.111136846
-0.78274286 -0.4340722 -0.6695919 -0.6798218 -0.42327335 -0.2276352 -0.16085862 -0.21981415
-0.33239812 -0.89338005 -0.35831034 -0.25881135 -0.7745455 -0.42334682 -0.017246155 -0.21925886
-0.1658216 -0.61788094 -0.24424005 -0.694453 -0.4901709 -0.08225795 -0.75594693 -0.11380459
-0.14515175 -0.39934894 0.30059934 -0.92097414 -0.45639873 -0.43906683 -0.10477555 -0.39177826
-0.76259977 -0.10651554 0.10669634 0.10624074 -0.14419709 -0.4738697 -0.10568558 -0.44427282
-0.17953013 -0.23088492 -0.39753264 -0.0047617815 -0.37560585 -0.5319731 -0.008203511 0.24338078
-0.65411067 -0.2616453 0.001177466 -0.48491096 -0.22260433 -0.56517303 -0.6283134 -0.09077603
-0.66386276 -0.055112537 -0.31139088 -0.441673 -0.35579294 -0.32455176 -0.29242542 -0.35029426
0.4940365 -0.62935805 -0.19436517 -0.1293846 -0.24664749 -0.26374277 0.06620948 -0.43158233
-0.24659126 -0.38149473 -0.63610667 -0.24269462 -0.22476594 -0.38106048 -0.070999905 -0.2641899
-0.18422101 -0.37748373 -0.3475676 -0.79665846 -0.6928362 -0.5384589 -0.578471 -0.31214482
-0.48383117 -0.040055413 -0.7557594 -0.15632598 -0.2087513 0.07912264 -0.4341548 -0.2998367
-0.80330944 -0.32040632 -0.42306042 0.07338383 -0.9006743 -0.193681 -0.07253826 -0.24604852
-0.5099835 -0.50732625 -0.6656072 -0.8021495 -0.6185763 -0.45352644 -0.9079506 -0.49714038
-0.4314449 -0.17414892 -0.38982907 -0.20686743 -0.34599322 -0.35011312 -0.5632823 -0.5057423
-0.7315263 0.03443533 -0.14480694 -0.14320497 -0.37390634 -0.5569801 -0.50326014 -0.42814726
-0.25053224 -0.36142287 -0.25697184 -0.3858843 -0.14350858 0.07121346 -0.7205034 -0.73833406
-0.7337653 -0.14811622 -0.47667858 -0.5035187 -0.41911653 -0.35848013 -0.21987924 -0.3411689
-0.2507596 -0.28747588 -0.18446325 -0.3465685 -0.35298026 -0.33470806 -0.8223006 -0.3334049
-0.6610788 -0.6797492 -0.30633354 -0.07121617 -0.59790546 -0.29681084 -0.24216618 -0.6709792
00000000: 9774 05bf 8630 e8be f959 b1be 4a97 0fbf
00000010: 7e1f a4be e294 abbd 572a 3fbf 7330 0dbe
00000020: 62be 4fbe 8e43 513e ee7a ffbe 21a8 9dbe
00000030: 87e2 f2be bdff 46bf 82b2 d8be 544d 21bf
00000040: b015 46bf 4eee d5be f46b 5abe e3c9 dbbe
00000050: e119 92be d912 e9be 3120 cbbe 3025 01bf
00000060: f187 e7bc a47a 90be 333e 08bf 1bd5 c9be
00000070: aa5b 34bf 3d6e 2bbf d282 aebd 2468 68bf
00000080: 661a c9be c39c 093e 0521 2fbe d490 0abf
00000090: a4cb c1bd d0f7 fabe bc72 dcbe 3b19 573e
000000a0: 76ce 8abe 5c5d e4be b32b c2bd ea73 17bf
000000b0: b4b9 c9be cc43 5ebe 4216 333e 382b 0b3e
000000c0: 82ae 32bf 5c9a 4ebe 2b40 84bc 6e28 4ebe
000000d0: 8eef fabe c531 e1be 4c3f d7bd b159 22bf
000000e0: f214 333c 0431 02bf e4c3 93be f542 c3bd
000000f0: 6aef 12bf bfec aa3e 3b3d 43bf bf1d 03be
00000100: 9d21 063d 1885 31bf cfb4 33be d8b2 0e3e
00000110: 685e 27be d482 b1bd f4dc d9bc 164c 063d
00000120: 70be 85be 55a7 58be 0aaf 16be fc6f 03bf
00000130: f077 b63d 14f1 8abc fd4e 3dbf 6c3d e8be
00000140: c7b8 51be fa21 b6be 5344 f2be 39f6 ffb8
00000150: 6c74 eabe 880e d93d 47be fc3e 8ac0 43bf
00000160: dfa7 f13c 4691 30bf 30be 70ba d0d2 fdbe
00000170: c3ce bebd 0bf4 0bbf ef74 dfbe b79b e3bd
00000180: d661 48bf b63e debe 606a 2bbf cd08 2ebf
00000190: 49b7 d8be 3419 69be 1fb8 24be f616 61be
000001a0: 1630 aabe 8eb4 64bf 7474 b7be ec82 84be
000001b0: 9d48 46bf eac0 d8be cf47 8dbc 6585 60be
000001c0: 23cd 29be 722d 1ebf 101a 7abe acc7 31bf
000001d0: aef7 fabe db76 a8bd bd85 41bf 6212 e9bd
000001e0: a9a2 14be 7777 ccbe 28e8 993e f6c4 6bbf
000001f0: 18ad e9be 5ecd e0be 9094 d6bd 2997 c8be
00000200: bd39 43bf d224 dabd 9c83 da3d bf94 d93d
00000210: 67a8 13be 0d9f f2be ae71 d8bd ba77 e3be
00000220: bfd6 37be 196d 6cbe 6689 cbbe b808 9cbb
00000230: 694f c0be 642f 08bf 0568 06bc d038 793e
00000240: cc73 27bf 5ff6 85be 3455 9a3a 4046 f8be
00000250: 64f2 63be 2eaf 10bf 26d9 20bf c9e8 b9bd
00000260: e9f2 29bf afbd 61bd a06e 9fbe f722 e2be
00000270: 7e2a b6be a62b a6be c9b8 95be c559 b3be
00000280: 5af2 fc3e 9c1d 21bf aa07 47be 667d 04be
00000290: 2991 7cbe 4b09 87be d698 873d 5cf8 dcbe
000002a0: 6b82 7cbe 4753 c3be e3d7 22bf f084 78be
000002b0: 0b29 66be 5c1a c3be 6668 91bd e643 87be
000002c0: 6fa4 3cbe 8c45 c1be 61f4 b1be cff1 4bbf
000002d0: b75d 31bf 71d8 09bf ad16 14bf 72d1 9fbe
000002e0: b8b8 f7be 2511 24bd 7379 41bf eb13 20be
000002f0: e7c2 55be 0d0b a23d 8a49 debe 3284 99be
00000300: b0a5 4dbf 4c0c a4be 609b d8be 434a 963d
00000310: 9792 66bf 5054 46be f08e 94bd 25f4 7bbe
00000320: 478e 02bf 22e0 01bf 3c65 2abf ab59 4dbf
00000330: 045b 1ebf 9e34 e8be 736f 68bf 2f89 febe
00000340: 59e6 dcbe 1854 32be ad97 c7be 0ed5 53be
00000350: 0626 b1be 0742 b3be 4533 10bf 5478 01bf
00000360: 4f45 3bbf 100c 0d3d 4548 14be 53a4 12be
00000370: a770 bfbe 3f96 0ebf a8d5 00bf 1e36 dbbe
00000380: c345 80be 6b0c b9be d091 83be a192 c5be
00000390: eaf3 12be 5dd8 913d e972 38bf 7603 3dbf
000003a0: 0bd8 3bbf c7ab 17be 370f f4be 9ae6 00bf
000003b0: 7196 d6be b58a b7be 0628 61be b1ad aebe
000003c0: 9063 80be 0a30 93be efe3 3cbe 6d71 b1be
000003d0: d4b9 b4be db5e abbe 4b82 52bf 0cb4 aabe
000003e0: 763c 29bf 0b04 2ebf c0d7 9cbe c9d9 91bd
000003f0: 5510 19bf 97f7 97be 69fa 77be 4bc5 2bbf

layer_2.weight f4 [300, 400]
-0.4109508 0.265467 0.97018564 0.36263865 -0.51641244 -0.0028905405 -0.044241726 0.04798929
-0.104359895 -0.05984581 0.023448449 0.36683214 0.14794613 -0.15851685 0.011060201 0.48428404
0.011319597 0.87578523 -0.83921576 -0.26079667 -0.28376058 -0.18405667 0.43365085 0.11358949
0.170662 -0.050668392 0.48791233 -0.8520486 0.34495643 -0.09917449 -1.1214783 0.43428445
0.22389053 -0.12410596 -0.26141486 0.47218913 -0.7796087 0.058960624 -0.48299238 -0.8945201
-1.3302579 -0.08721115 -0.10839081 0.73857045 -0.27537647 0.43967688 -1.5176691 0.15972176
-0.5784265 -0.9938935 0.5233342 -0.6656635 -0.50694555 1.1679722 -0.72945434 0.0773155
0.42666385 1.1285332 0.81940943 -0.51213497 -0.62976885 -0.67649364 -0.87387645 -0.103513636
-0.22721018 -0.71994114 -0.8759153 -0.5059925 -0.14916408 -0.14382385 -0.9608414 -0.16004978
-0.57868576 -0.4797686 -0.58606184 0.31884834 -1.3105263 -0.69061404 -0.3467621 -0.5555286
-1.3379767 -0.41976592 -0.2823964 -0.55157423 0.7441598 -0.61003053 -0.24978949 -0.08485987
-0.5904313 -0.15865739 -0.10701527 0.8209733 -0.25780472 0.2842834 0.14419936 -0.5174879
1.0225745 -0.32366943 0.3627271 0.094319195 -0.34251428 -1.0556297 -0.3981014 -0.16917571
-0.09765695 -0.49207452 -0.40782624 -0.48594955 0.3543591 -0.014074229 -0.77537066 -0.069037616
-0.6870577 0.28753453 0.88655245 0.8138565 0.28759217 -0.17805436 0.82095677 -1.37205
0.2614153 -0.9038949 0.37907556 0.4709271 0.28011703 0.12241021 -0.05710731 0.709965
-0.052370578 0.081442624 0.4408417 -0.050390843 0.44785944 -0.01132983 -0.5911785 -0.27551922
-0.31697685 0.39165398 0.5778728 -0.6085636 0.66039205 0.5836096 0.22753389 0.21995687
0.49567428 0.24633145 -0.59723824 0.2550995 -0.61164874 -0.9693524 0.17128123 -0.6921984
-0.050634865 -0.14560607 -0.25928316 -0.06691576 -0.8806649 0.07001999 0.22286527 -0.22578898
-0.13655867 0.018848132 0.19546914 0.23229885 -0.00950208 -0.5119153 -0.034873128 -1.366359
0.028053783 -0.5510707 -0.4136987 0.5627505 -1.2202654 -0.7025237 0.26760793 -0.57599795
0.36335942 0.6772901 -0.8499277 0.07270286 -0.13143866 1.0312697 0.58357155 0.64495164
0.89523596 -0.1463818 -0.30573028 -0.70467 0.6990649 0.06881472 -0.42888132 0.02906921
-0.7611289 -0.04217032 -0.30151427 -0.8724004 0.9012584 0.72218704 -0.19638741 -0.76587236
0.9852937 -0.968923 -0.026191907 0.42652428 0.13777976 0.6892389 -0.49436378 -1.1675464
-0.32217842 -0.075365566 -0.26065093 -0.60893756 -0.4474649 -0.26605964 0.026859112 0.13556299
0.42179516 -0.2064634 -0.8463338 0.23144318 0.088017285 0.12582445 0.4351351 0.02812641
0.0010864064 0.52906996 0.436081 0.93619514 -0.5614307 0.5743421 -0.09895991 0.503706
0.66384786 0.6947737 0.09654234 -0.06257152 -0.20714581 -0.21878448 0.053928714 -0.080134764
-0.36567608 0.21581762 -0.7736998 -0.025560008 0.27806655 -0.31026456 0.22141428 -0.33526546
0.7628969 0.12926902 0.58860403 -0.55804205 0.2839401 0.81109524 -0.81779957 -0.3155979
00000000: 2568 d2be 4aeb 873e 165e 783f c6ab b93e
00000010: 9b33 04bf 396f 3dbb d036 35bd 6b90 443d
00000020: a4ba d5bd e120 75bd f616 c03c 6cd1 bb3e
00000030: 317f 173e 3e52 22be d835 353c 14f4 f73e
00000040: d575 393c 7633 603f d8d6 56bf 2487 85be
00000050: 1149 91be 5a79 3cbe 7c07 de3e 9ba1 e83d
00000060: 05c2 2e3e a989 4fbd a5cf f93e db1f 5abf
00000070: 219e b03e ff1b cbbd 9a8c 8fbf 885a de3e
00000080: 8f43 653e 442b febd 2bd8 85be c6c2 f13e
00000090: 7094 47bf b280 713d c74a f7be 45ff 64bf
000000a0: e445 aabf c29b b2bd 00fc ddbd f412 3d3f
000000b0: 25fe 8cbe 541d e13e fb42 c2bf 1a8e 233e
000000c0: c213 14bf ce6f 7ebf 3bf9 053f ec68 2abf
000000d0: 2fc7 01bf 1d80 953f 85bd 3abf 9757 9e3d
000000e0: af73 da3e c773 903f d1c4 513f 471b 03bf
000000f0: 8838 21bf b02e 2dbf 5eb6 5fbf f5fe d3bd
00000100: c9a9 68be 104e 38bf fc3b 60bf b988 01bf
00000110: 78be 18be 8f46 13be b4f9 75bf 17e4 23be
00000120: c024 14bf 3ba4 f5be 2608 16bf 1740 a33e
00000130: 53bf a7bf 15cc 30bf cd8a b1be 1f37 0ebf
00000140: d242 abbf 8feb d6be 4396 90be f833 0dbf
00000150: 4281 3e3f f62a 1cbf d1c8 7fbe 03cb adbd
00000160: 8126 17bf 1577 22be d22a dbbd 4e2b 523f
00000170: fbfe 83be 988d 913e ffa8 133e 167a 04bf
00000180: b9e3 823f 00b8 a5be 5eb7 b93e 6c2a c13d
00000190: 085e afbe e01e 87bf f2d3 cbbe 663c 2dbe
000001a0: 5e00 c8bd 31f1 fbbe 9ace d0be 61ce f8be
000001b0: 8e6e b53e 9897 66bc b17e 46bf 9863 8dbd
000001c0: 03e3 2fbf ba37 933e 1af5 623f e658 503f
000001d0: 483f 933e e253 36be 392a 523f 569f afbf
000001e0: 3ad8 853e a865 67bf 3116 c23e 5b1d f13e
000001f0: 806b 8f3e 34b2 fa3d 5be9 69bd 44c0 353f
00000200: 8882 56bd 64cb a63d 01b6 e13e a166 4ebd
00000210: d54d e53e c0a0 39bc 7957 17bf db10 8dbe
00000220: ca4a a2be df86 c83e 79ef 133f d3ca 1bbf
00000230: 740f 293f 7067 153f a5fe 683e 603c 613e
00000240: 05c9 fd3e 503e 7c3e 9be4 18bf 679c 823e
00000250: 0395 1cbf 7b27 78bf 5964 2f3e ea33 31bf
00000260: 8166 4fbd c219 15be c3c0 84be 210b 89bd
00000270: 4173 61bf a466 8f3d cb36 643e 3a35 67be
00000280: 09d6 0bbe 6667 9a3c 1029 483e c0df 6d3e
00000290: 9dae 1bbc e20c 03bf 20d7 0ebd dae4 aebf
000002a0: 0cd1 e53c f812 0dbf 51d0 d3be 6b10 103f
000002b0: a831 9cbf 98d8 33bf e803 893e 9a74 13bf
000002c0: 3f0a ba3e e262 2d3f dd94 59bf 3de5 943d
000002d0: db97 06be a500 843f f264 153f 8d1b 253f
000002e0: 2f2e 653f 1ce5 15be ae88 9cbe 4165 34bf
000002f0: ebf5 323f bbee 8c3d 5596 dbbe 8d22 ee3c
00000300: 58d9 42bf c9ba 2cbd 1460 9abe a255 5fbf
00000310: dfb8 663f 40e1 383f c819 49be 3610 44bf
00000320: 353c 7c3f 560b 78bf 6990 d6bc 6461 da3e
00000330: 2316 0d3e f671 303f 401d fdbe 2972 95bf
00000340: 92f4 a4be 4359 9abd 0a74 85be 55e3 1bbf
00000350: 1f1a e5be f838 88be a407 dc3c 06d1 0a3e
00000360: 89f5 d73e 246b 53be 55a9 58bf 71ff 6c3e
00000370: 6842 b43d 20d8 003e 07ca de3e 5b69 e63c
00000380: c065 8e3a 2171 073f 0246 df3e 7caa 6f3f
00000390: ecb9 0fbf 1508 133f 7eab cabd e0f2 003f
000003a0: eff1 293f b0dc 313f feb7 c53d 7f25 80bd
000003b0: 081e 54be 0a09 60be 5be4 5c3d b21d a4bd
000003c0: e539 bbbe 4bff 5c3e 3111 46bf 3963 d1bc
000003d0: bd5e 8e3e ffda 9ebe 6dba 623e eaa7 abbe
000003e0: 364d 433f 195f 043e c1ae 163f d8db 0ebf
000003f0: 9960 913e f0a3 4f3f 505b 51bf 0c96 a1be

layer_2.bias f4 [300]
-0.036603674 -0.26975432 -0.29560372 -0.4859269 -0.33231235 -0.09939593 -0.2969181 -0.6536214
-0.7064438 -0.058834054 -0.56038874 -0.12814654 -0.21230838 -0.59356177 -0.20580395 -0.13760026
-0.22053935 -0.032783702 -0.27299476 0.21409401 0.070202254 -0.3704748 0.14590716 -0.4176935
0.68889654 -0.43739745 0.3904164 -0.107780926 -0.8559286 -0.8954148 -0.8177484 -0.5388876
-0.5953691 -0.08247201 -0.018967746 -0.08011407 0.18804725 -0.35136864 -0.050671518 0.32256785
-0.16313934 -0.5971355 -0.0655867 -0.51449025 -0.11871991 -0.28506055 -0.13533881 0.07750616
-0.07471846 -0.47262982 -0.83202165 0.20200248 0.3894968 0.22743821 -0.24593632 -0.068944894
0.28820646 -0.3278149 -0.9188467 -0.29955083 -0.36287174 -0.050999325 -0.9305037 -0.17614913
-0.4480425 -0.107138105 -0.30281347 -0.53839445 0.0057415967 -0.6357287 -0.84265393 -0.4281426
-0.9455459 0.045279685 -0.3769531 -0.05114681 -0.121772744 -0.8179554 0.16525882 -0.45067835
-0.061994 -0.55201244 -0.159932 -0.26556575 -0.061130896 -0.06496898 -0.12878807 -0.80185956
0.3837609 -0.045239702 -0.12111828 -0.055730537 0.23439734 0.00736133 -0.039659377 -1.0482748
-0.55196744 -0.313097 -0.012272929 -0.0948977 -0.7953539 -0.12418096 -0.520825 0.009235314
-0.03596855 -0.05776655 -0.681862 -0.38810158 -0.47269455 -0.3026647 -0.5802137 -0.2907766
0.49121365 0.14823163 0.44368133 -0.671541 0.035053186 -0.36276162 -0.77831817 -0.53570485
-0.23965383 -0.19928135 -0.47186157 -0.65537804 -0.9557931 -0.09142826 0.44343022 -0.091524795
0.3603601 -0.38723943 -0.83670455 -0.15927953 -0.6997723 -0.072891474 -0.07982615 -0.33158144
-0.318293 -0.063533105 0.20917228 -0.34523025 -0.057098154 -0.2695408 -0.49315915 0.12716334
0.46566266 -0.13773009 -1.0331014 0.16679348 0.0044826004 -0.35251808 -0.08922374 -0.6712104
-0.069792345 -0.058628384 -0.96659356 -0.08259574 -0.71343374 -0.12537476 -0.077253826 -0.37629423
-0.30176398 -0.096877426 -0.63851404 0.39049497 -1.3486587 0.420371 -0.075067446 -0.006630463
-0.059815038 -0.11692884 -0.3634717 -0.113117814 -0.0029263839 -0.16782504 -0.5678148 -0.46925992
-0.6361796 -0.3573978 -0.3758162 -0.5360135 -0.04660255 -0.11822071 -0.6242782 -0.5162162
-0.38953426 -0.20822787 -0.12329869 -0.25980487 -0.4967413 -0.17298263 -0.82612914 -0.18992244
-0.5971019 0.5306986 -0.16434097 -0.14842121 -0.36829787 -0.52465636 -0.7390521 -0.69493556
-0.46281335 -0.72763705 0.28532252 -0.28109896 0.16009684 0.057251498 -0.17943487 -0.25489607
0.30332178 0.16380185 -0.2162116 -0.2301407 -0.87634593 -0.8055473 -0.05012636 -0.69988513
0.22672358 -0.4665149 -1.0504647 -0.6081832 -0.120956555 -0.31522876 -0.6937386 -0.9932744
-0.8396896 -1.1264303 -0.35815892 -1.0744393 -0.09922063 -0.931066 -0.36868957 0.1383111
0.056784075 -0.18671237 -0.13367943 -0.3744792 -0.081770174 -0.27762598 0.32314232 0.2606381
-0.10232562 -0.25289798 -0.30507973 -0.005615476 -0.11816541 -0.615674 -0.028390136 -0.19771844
-0.053800028 0.0828257 0.0076770317 0.04051288 -0.40001574 -0.9671747 -0.17456676 -0.5081913
00000000: bced 15bd 3d1d 8abe 5f59 97be 69cb f8be
00000010: d824 aabe 1890 cbbd a605 98be bb53 27bf
00000020: 80d9 34bf fafb 70bd a375 0fbf d938 03be
00000030: 5e67 59be aaf3 17bf 45be 52be 15e7 0cbe
00000040: 11d5 61be 3448 06bd f8c5 8bbe 763b 5b3e
00000050: 33c6 8f3d dfae bdbe b068 153e ecdb d5be
00000060: 865b 303f 8ff2 dfbe a9e4 c73e 3fbc dcbd
00000070: 231e 5bbf e839 65bf f657 51bf 8af4 09bf
00000080: 1c6a 18bf 16e7 a8bd 3f62 9bbc d812 a4bd
00000090: 758f 403e 97e6 b3be f08c 4fbd 9d27 a53e
000000a0: 000e 27be dfdd 18bf 5252 86bd a2b5 03bf
000000b0: 6d23 f3bd 75f3 91be 4296 0abe 8dbb 9e3d
000000c0: fe05 99bd 89fc f1be 5fff 54bf bdd9 4e3e
000000d0: 206c c73e 90e5 683e bbd6 7bbe fb32 8dbd
000000e0: cc8f 933e 5bd7 a7be 8a39 6bbf ba5e 99be
000000f0: 53ca b9be abe4 50bd 7e35 6ebf 7060 34be
00000100: d465 e5be 396b dbbd 5e0a 9bbe 38d4 09bf
00000110: 0124 bc3b 1ebf 22bf 2bb8 57bf 8235 dbbe
00000120: 4c0f 72bf 3177 393d ffff c0be 517f 51bd
00000130: fd63 f9bd 8665 51bf 9c39 293e 50bf e6be
00000140: 6ced 7dbd b050 0dbf 37c5 23be 3cf8 87be
00000150: 6464 7abd 750e 85bd 05e1 03be ab46 4dbf
00000160: 4f7c c43e 444d 39bd dc0c f8bd b445 64bd
00000170: db05 703e 5037 f13b df71 22bd de2d 86bf
00000180: bd4d 0dbf 404e a0be 6514 49bc ba59 c2bd
00000190: 509c 4bbf 9652 febd ca54 05bf b74f 173c
000001a0: c253 13bd 9e9c 6cbd 828e 2ebf 40b5 c6be
000001b0: 0505 f2be def6 9abe e388 14bf ace0 94be
000001c0: 5b80 fb3e 08ca 173e 332a e33e 1cea 2bbf
000001d0: ee93 0f3d e4bb b9be dc3f 47bf f423 09bf
000001e0: d067 75be 6910 4cbe d797 f1be dbc6 27bf
000001f0: dbae 74bf bd3e bbbd 4909 e33e 5a71 bbbd
00000200: 1e81 b83e 3f44 c6be 4532 56bf 2c1a 23be
00000210: 4724 33bf 2048 95bd e47b a3bd 0bc5 a9be
00000220: 4df7 a2be a51d 82bd 4231 563e 05c2 b0be
00000230: c1df 69bd 4001 8abe 5b7f fcbe 1b37 023e
00000240: 566b ee3e 1e09 0dbe ab3c 84bf e9cb 2a3e
00000250: c7e2 923b 407d b4be f0ba b6bd 72d4 2bbf
00000260: 4aef 8ebd 5124 70bd ad72 77bf f527 a9bd
00000270: 98a3 36bf 3e62 00be 4137 9ebd a3a9 c0be
00000280: cf80 9abe ac67 c6bd a875 23bf f5ee c73e
00000290: d9a0 acbf de3a d73e f6bc 99bd 5b44 d9bb
000002a0: 9d00 75bd 6378 efbd f618 babe 50aa e7bd
000002b0: 93c8 3fbb 54da 2bbe 505c 11bf d642 f0be
000002c0: abdc 22bf d8fc b6be fb6a c0be 2e38 09bf
000002d0: 51e2 3ebd b31d f2bd b2d0 1fbf bf26 04bf
000002e0: 0971 c7be b039 55be 0684 fcbd 2505 85be
000002f0: e054 febe 5c22 31be 337d 53bf 077b 42be
00000300: acdb 18bf dddb 073f 0049 28be bbfb 17be
00000310: 8a91 bcbe e14f 06bf 8532 3dbf 4ce7 31bf
00000320: dff5 ecbe 6c46 3abf cb15 923e 34ec 8fbe
00000330: 6df0 233e 8c80 6a3d c6bd 37be bd81 82be
00000340: fe4c 9b3e acbb 273e 9366 5dbe 01aa 6bbe
00000350: 3558 60bf 5938 4ebf 4c51 4dbd ac2b 33bf
00000360: 3a2a 683e 0adb eebe a175 86bf e5b1 1bbf
00000370: 12b8 f7bd aa65 a1be da98 31bf 3b47 7ebf
00000380: e6f5 56bf de2e 90bf 9b60 b7be 3a87 89bf
00000390: 3034 cbbd 575a 6ebf e1c4 bcbe 6da1 0d3e
000003a0: 6b96 683d 8731 3fbe 43e3 08be bdbb bfbe
000003b0: 1f77 a7bd fe24 8ebe e972 a53e 5b72 853e
000003c0: 1890 d1bd d87b 81be 6933 9cbe 0702 b8bb
000003d0: b500 f2bd d09c 1dbf 6e92 e8bc b476 4abe
000003e0: 6b5d 5cbd 85a0 a93d 9c8f fb3b d5f0 253d
000003f0: ddce ccbe c398 77bf a1c1 32be d318 02bf

layer_3.weight f4 [6, 300]
-0.13185488 0.6100068 -0.99983925 -0.10108601 0.37029356 -0.03814786 0.1688701 1.3232374
-0.72722566 0.0674065 -0.4630202 -1.1764354 -0.4644875 0.60612386 0.6315188 -0.08759551
0.22536694 0.08206762 0.6689885 -0.19112806 -0.14230393 1.4539853 -0.13618109 0.212815
-0.37130934 -0.31584886 -0.39490646 -0.03984209 -0.08646672 -0.5874256 -0.52182835 1.0682316
1.1177922 -0.6116814 0.20447336 0.06504223 -0.26977468 -1.1596863 -0.028399704 -0.45738322
-0.29439554 -1.1088859 -0.08249015 0.25855368 0.023439946 -0.04339111 0.07072276 -0.46489477
-0.0064945286 -0.17154206 -0.77738476 1.5423337 1.0940604 -0.05310764 0.2846521 0.12618645
0.19110648 -0.18757759 -0.7959071 -0.08630066 -0.8797657 -0.7707659 0.27708358 -0.6532125
0.74616706 -0.9217547 -0.0792141 -0.10363502 0.15497304 0.01346709 1.4015992 0.17791872
-1.3863851 1.6968836 0.2874875 -0.02169421 -1.6782866 0.21709915 0.29840702 0.65923035
0.048813332 -0.31920713 -0.0369679 0.17897739 0.071732916 -1.9103307 -0.4199765 -0.5340278
-0.66088897 0.010902221 0.94133884 -0.015910247 -0.5302687 -0.88690877 -0.013491237 -1.5335647
-0.5252487 -1.2592932 -0.0093591325 0.019580523 0.848419 -0.037281264 -0.00809172 0.9426298
-0.20018904 -0.21362661 0.7097475 0.63373446 -0.36176297 1.2238007 0.5506387 0.20294939
-0.1349307 0.89863676 0.7558826 0.5272605 1.22854 -0.79436994 -0.13598147 -0.28992605
0.17279236 -3.251663 -1.340004 -0.2723878 -0.2076734 0.036228 0.27329794 -0.08077685
-1.456994 -1.0141355 0.2334294 0.024853598 -0.2337421 -0.045088496 -0.025358502 0.75833386
0.561203 -0.17105982 0.5004604 0.94444215 -0.23608615 0.4060025 -0.6948614 1.1339986
0.40911543 -0.41861776 0.52564317 0.19204012 0.58093804 0.69151473 -0.07663005 -1.5007114
0.43811437 0.05108239 0.986096 0.00949311 -1.1085745 0.51867336 -0.07947001 -0.007975259
0.1268252 -0.017399559 0.1049294 0.005188967 -1.7280629 -0.21902844 0.055404153 -0.9034047
0.050349124 0.010140852 -0.39266968 -0.013399328 0.5180068 -0.07424665 -0.60307 0.03630441
0.15195914 -0.3165221 -1.9235157 0.22098291 -0.12469223 0.024699459 -1.0080774 -1.4425579
-1.4478706 -0.081219465 -0.015726173 0.82050997 0.27416036 1.1565174 -0.2398162 0.060862962
-0.5612471 -0.32480177 -0.010473659 0.005933998 0.14482798 0.72233236 1.4938786 -0.29840216
-0.43414116 -0.9913059 -0.09373352 0.01577901 -0.030824594 0.20036872 -0.18363915 -0.8779173
0.2568502 0.7235592 -0.47854164 -0.2539986 1.0252981 -0.6614719 0.057174284 0.13485435
-0.22074436 0.22449344 -0.24129374 -0.14874075 -0.032962672 -0.3918396 -0.068558335 -0.541476
-0.92109567 0.15279794 0.32983804 -1.0697708 -0.0680752 -0.08758339 0.6910134 -0.21251346
-0.13586998 -0.028533436 0.028524233 -1.4418811 0.113970496 -0.046670437 -0.71859795 0.66165996
0.008461678 -0.013837815 -0.517679 -0.934491 0.020970302 0.31383494 -0.7648605 1.0463809
-0.010557073 -0.06460811 -0.545196 -0.450021 0.9926883 -0.4693283 -2.7301319 -0.19844534
00000000: f704 07be 6829 1c3f 77f5 7fbf 2f06 cfbd
00000010: 1e97 bd3e ee40 1cbd 49ec 2c3e d85f a93f
00000020: 762b 3abf 6b0c 8a3d fc10 edbe 6f95 96bf
00000030: 4ed1 edbe ef2a 1b3f 37ab 213f 4665 b3bd
00000040: 97c6 663e 1113 a83d d542 2b3f 13b7 43be
00000050: 1fb8 11be 311c ba3f 0e73 0bbe 2dec 593e
00000060: 421c bebe f1b6 a1be 2e31 cabe 7631 23bd
00000070: 7715 b1bd 8661 16bf 8b96 05bf d0bb 883f
00000080: d113 8f3f 2797 1cbf 7761 513e dc34 853d
00000090: e81f 8abe 9a70 94bf 7fa6 e8bc 222e eabe
000000a0: 03bb 96be f9ef 8dbf 99f0 a8bd 2661 843e
000000b0: 2105 c03c e0ba 31bd 18d7 903d b006 eebe
000000c0: 0ed0 d4bb b9a8 2fbe b002 47bf 316b c53f
000000d0: 2c0a 8c3f 6687 59bd ecbd 913e 0537 013e
000000e0: 6bb1 433e 5714 40be 91c0 4bbf 67be b0bd
000000f0: 5338 61bf ea50 45bf e6dd 8d3e ef38 27bf
00000100: ce04 3f3f 1ef8 6bbf 013b a2bd 993e d4bd
00000110: 41b1 1e3e 12a5 5c3c 9a67 b33f 5330 363e
00000120: 1175 b1bf 7b33 d93f 9031 933e 0eb8 b1bc
00000130: 18d2 d6bf 3d4f 5e3e cec8 983e 52c3 283f
00000140: 7df0 473d 1e6f a3be a76b 17bd d945 373e
00000150: b5e8 923d b785 f4bf 2907 d7be 0cb6 08bf
00000160: 0530 29bf 3b9f 323c 95fb 703f 3556 82bc
00000170: b1bf 07bf 740c 63bf 590a 5dbc d94b c4bf
00000180: b376 06bf 8530 a1bf 0c57 19bc 5567 a03c
00000190: fd31 593f 3db4 18bd 2293 04bc 3050 713f
000001a0: 5bfe 4cbe efc0 5abe 03b2 353f 6c3c 223f
000001b0: ff38 b9be 80a5 9c3f a8f6 0c3f f7d1 4f3e
000001c0: 462b 0abe 0f0d 663f 8681 413f 8bfa 063f
000001d0: cc40 9d3f d45b 4bbf ba3e 0bbe 3071 94be
000001e0: 7bf0 303e 3f1b 50c0 4085 abbf 6a76 8bbe
000001f0: 56a8 54be d063 143d b5ed 8b3e 556e a5bd
00000200: c87e babf 31cf 81bf 1e08 6f3e c699 cb3c
00000210: 175a 6fbe b7ae 38bd a2bc cfbc 2b22 423f
00000220: 00ab 0f3f 4e2a 2fbe 2c1e 003f f6c6 713f
00000230: 91c0 71be 8fdf cf3e 70e2 31bf de26 913f
00000240: 9477 d13e 1155 d6be 8d90 063f 2aa6 443e
00000250: 5bb8 143f 1c07 313f 37f0 9cbd 5017 c0bf
00000260: 8750 e03e c53b 513d ca70 7c3f fd88 1b3c
00000270: c5e5 8dbf c7c7 043f 2cc1 a2bd a9aa 02bc
00000280: 77de 013e 8589 8ebc 3ae5 d63d 3608 aa3b
00000290: 2a31 ddbf fe48 60be 77ef 623d 8845 67bf
000002a0: e23a 4e3d d125 263c 000c c9be db88 5bbc
000002b0: 189c 043f a10e 98bd cc62 1abf efb3 143d
000002c0: 2d9b 1b3e 2f0f a2be c335 f6bf 5849 623e
000002d0: a45e ffbd 8556 ca3c ae08 81bf bda5 b8bf
000002e0: d353 b9bf 6456 a6bd 2dd4 80bc f10c 523f
000002f0: bf5e 8c3e c308 943f 6192 75be 714b 793d
00000300: e4ad 0fbf 6b4c a6be b699 2bbc fc71 c23b
00000310: c94d 143e c6ea 383f 6a37 bf3f 2bc8 98be
00000320: c047 debe 39c6 7dbf 5cf7 bfbd fb42 813c
00000330: dc83 fcbc 752d 4d3e e70b 3cbe 30bf 60bf
00000340: df81 833e 2d3b 393f 6903 f5be 1b0c 82be
00000350: f83c 833f 3956 29bf 952f 6a3d 4217 0a3e
00000360: cf0a 62be 9ce1 653e b515 77be 7f4f 18be
00000370: de03 07bd 339f c8be 5068 8cbd 2c9e 0abf
00000380: edcc 6bbf 1077 1c3e 88e0 a83e 40ee 88bf
00000390: 036b 8bbd ec5e b3bd 41e6 303f 219d 59be
000003a0: 8021 0bbe f4be e9bc a7ab e93c 8f8f b8bf
000003b0: 5d69 e93d 8029 3fbd 09f6 37bf 8c62 293f
000003c0: daa2 0a3c 01b8 62bc 9c86 04bf cd3a 6fbf
000003d0: e9c9 ab3c f9ae a03e e6cd 43bf cfef 853f
000003e0: 93f7 2cbc 4251 84bd f791 0bbf 2769 e6be
000003f0: d220 7e3f cd4b f0be 7bba 2ec0 4135 4bbe

layer_3.bias f4 [6]
0.5736643 0.30353934 0.13943714 -0.0126660075 0.47934255 0.7018625
00000000: aadb 123f 8269 9b3e 9cc8 0e3e 1685 4fbc
00000010: 636c f53e 43ad 333f
